anfis_model.pth (torch, 2437 bytes, 3 tensors)

mu f4 [5, 5]
000000 f1 db 4a 3f ff 6e f5 3d ef 7d 26 3f 3f cb e8 ba
       0.79241854 0.119840614 0.6503591 -0.0017760767
000010 ef ab ef 3e f9 e8 d3 bc ca 3d 6a 3f cd 50 5f 3e
       0.46810862 -0.025867926 0.9150053 0.21808167
000020 0e 1a 17 3f 55 18 d7 3e d9 8f f1 3e c3 6a 73 3f
       0.5902413 0.4201075 0.4718006 0.9508478
000030 b9 d6 47 3e ff b8 83 3f b5 2b d8 3e 28 90 62 3f
       0.19515504 1.0290831 0.42220846 0.88501215
000040 da 07 84 3d 3f 3b f7 3e 85 87 b5 bd 34 43 8d 3e
       0.0644681 0.4828739 -0.08863739 0.27590334
000050 85 e6 73 3f 9c ed 8e 3c 8e f5 48 3f ab ad 87 3f
       0.9527362 0.017447285 0.78499687 1.0599874
000060 f7 a7 7e 3e
       0.24868761

sigma f4 [5, 5]
000000 1c 16 78 3e f8 9b 55 3f 73 35 b7 3d 23 c2 2c 3f
       0.24227184 0.83441114 0.089457415 0.6748373
000010 89 3e 3b bc 5e a9 f7 3d fc 99 38 3b 23 9f 0e 3f
       -0.011428484 0.12092851 0.0028167954 0.55711573
000020 9f a2 da 3d 8f df 9b 3c 2e 9c 3c 3f ad cf e0 3e
       0.10675549 0.0190275 0.7367581 0.43908444
000030 59 24 1a 3f fc ec eb 3c 09 d1 2d 3f 4d 7c eb 3c
       0.6021171 0.028799526 0.6789709 0.028745795
000040 34 4d db 3e e2 63 a2 3e 73 61 72 3d ce 86 1f 3f
       0.4283234 0.3171683 0.059174966 0.6231507
000050 0c 8d 93 3d 18 47 ff 3e 15 3a 04 bb 06 c2 43 3e
       0.07204637 0.49858928 -0.002017622 0.19116983
000060 3f 9d 63 3e
       0.22227953

consequent.weight f4 [1, 25]
000000 c7 7a 23 3e c1 42 fa bc 6c 69 16 3d ff 51 a9 bd
       0.15964805 -0.030549409 0.036721632 -0.08267593
000010 bb b1 18 3e c4 e7 60 be d9 f5 f5 bc f2 ea 86 3d
       0.14911549 -0.21963412 -0.030024456 0.06587781
000020 5e 7d 07 3d 5c 90 9f bd 0c b8 70 3e e3 30 ee 3d
       0.033078544 -0.07791206 0.23507708 0.11630418
000030 8b e0 ed 3d b7 20 b0 bd 45 00 9c 3d ef 87 97 bb
       0.11615094 -0.0859999 0.07617239 -0.004624359
000040 77 7d fb bd 17 8f fd 3c c0 84 6c be d7 31 1c bb
       -0.1227979 0.03095202 -0.23097515 -0.0023833418
000050 e5 88 c2 3d 71 a3 84 3e 2e 4e 09 bd 53 a8 8e 3e
       0.09498767 0.25905946 -0.033521824 0.27862796
000060 e1 5d cb 3d
       0.09930015
